model/keypoint_classifier/keypoint_classifier.tflite (tflite, 6748 bytes, 6 tensors)

sequential_2/dense_8/BiasAdd/ReadVariableOp f4 [8]
-0.5488458 0.23211034 0.43188593 -0.48430675 0.4689098 0.05305339 0.42390746 -0.45906374
00000000: 2981 0cbf 55ae 6d3e 2720 dd3e 0ef7 f7be
00000010: f214 f03e 834e 593d 660a d93e 670a ebbe

sequential_2/dense_7/BiasAdd/ReadVariableOp f4 [10]
-0.025311397 0.20871703 1.008941 0.7881124 0.13915715 0.04681075 0.21254514 0.030038353
0.6217235 0.9325636
00000000: d959 cfbc ebb9 553e fb24 813f bcc1 493f
00000010: 367f 0e3e a1bc 3f3d 6fa5 593e fe12 f63c
00000020: 4529 1f3f 7dbc 6e3f

sequential_2/dense_6/BiasAdd/ReadVariableOp f4 [20]
-0.42184782 0.008833495 -0.1761201 -0.8215891 0.07500666 -0.49492398 -0.49600908 0.10499823
-0.68704987 -0.29589474 -0.18433316 -0.64523333 0.107608736 -0.47318724 -0.75891864 -0.39788228
-0.92173564 -0.7475786 -0.8065597 0.19053158
00000000: 70fc d7be 5dba 103c d458 34be aa53 52bf
00000010: 179d 993d ad66 fdbe e7f4 fdbe 5009 d73d
00000020: 80e2 2fbf 847f 97be d5c1 3cbe 032e 25bf
00000030: f861 dc3d 9945 f2be 7e48 42bf 3ab7 cbbe
00000040: def6 6bbf 5061 3fbf b27a 4ebf b61a 433e

sequential_2/dense_6/MatMul f4 [20, 42]
-0.001185447 -0.00011971593 -0.08608198 0.35261658 0.033076126 0.20500596 -0.24563375 0.25829273
-0.031932108 0.2654117 0.148782 0.120057054 0.006548499 0.13233474 -0.06895873 0.13485907
-0.11168014 0.05732644 0.10610569 0.12230918 -0.06401531 0.03206465 -0.037263665 -0.25770718
0.37751973 -1.4953188 0.016772376 0.16934463 -0.019153005 0.10601956 0.049359996 -0.4890835
0.29067433 -0.67199266 -0.09921953 0.2577691 -0.004140317 0.16701415 -0.056062523 0.1815769
0.18388824 0.16922706 -0.24135128 0.03570512 0.019151973 0.57630473 -0.010814157 0.31575665
-0.008504227 0.27128872 -0.04925854 0.23067312 0.045393758 0.18112768 0.03150587 0.15325075
0.024463793 0.088238604 -0.0039825956 -1.5407779 0.028355401 0.18536113 -0.0041314717 0.14308417
-0.023229672 0.13889235 -0.03563285 0.07666632 0.02626216 0.1746937 -0.018865462 0.123486444
-0.028859187 0.045293547 -0.02871901 0.012751197 -0.0055846414 0.19414434 -0.010625422 0.08780478
-0.039639533 0.0044046636 -0.024080295 -0.04340753 -0.24873549 0.20588565 0.117153466 0.3514781
0.005840548 0.23838846 -0.047594756 0.25987792 -0.026669225 0.26727143 0.053356815 0.123259366
-0.014934644 0.023766767 -0.009685964 -0.027685035 -0.0181167 -0.070680715 0.07482191 0.11403995
-0.021574453 0.07320201 0.0367606 0.063465714 0.022483611 0.07054403 0.104201816 0.14364715
-0.038402144 0.09528075 -0.08068096 0.09835561 -0.17831068 -1.8212771 0.121097244 0.14037323
0.05465164 0.15554373 -0.012801248 0.18466686 -0.052116424 0.20276831 0.17980894 0.21457791
0.783449 -0.44915012 0.5178745 -0.22942686 0.40249097 -0.37688488 0.21736123 -0.3240826
0.38970283 -0.025425263 0.023952741 -0.021446291 -0.21809112 0.18181905 -0.30035818 0.08560761
0.35193363 -0.048227914 0.0812208 -0.09749968 -0.1610459 0.117955916 -0.21337788 0.15435603
0.32782516 -0.110894896 0.1890259 -0.16750787 -0.07425517 0.11444248 -0.16604082 0.122081876
0.21391203 -0.26540214 0.28248444 -0.11236512 0.1418125 0.08998235 0.0048548235 0.17447719
0.23924029 0.21335447 -0.039094936 0.6633421 -0.0077434857 0.34104303 -0.019049805 0.26484448
-0.026058674 0.25809664 0.020497626 0.1808214 0.00015127497 0.14495237 0.039436877 0.06000648
0.07442551 -1.4936222 0.014727427 0.16760263 0.0010005618 0.1557934 -0.04345625 0.15092346
-0.02552848 0.09327792 0.022118216 0.17004491 -0.012810523 0.10963901 -0.037167482 0.06545401
-0.036174227 0.006518581 0.02991494 0.13090658 0.005324855 0.08419469 -0.02806826 9.500529e-05
-0.035490777 -0.060313508 -0.2064172 0.30749726 -0.020323124 -0.05992438 0.0077656475 0.11780426
-0.109662846 0.09595337 -0.4411995 0.07198753 0.004648461 0.033989526 -0.028437076 0.043828815
0.07464631 0.06549626 0.12323672 0.056381255 -0.010636131 -0.0144266365 -0.04310283 0.11064857
0.009462565 0.12277323 0.09833271 0.13086931 -0.0814335 0.034817122 -0.086572036 0.0637141
-0.005643669 -0.19832656 0.7540235 -0.43180823 -0.11447623 0.14818768 -0.15800124 0.049590524
0.041925706 -0.43390965 0.21767998 -1.3281955 -0.2696261 0.17377815 0.03743093 -0.62288266
00000000: 0061 9bba 0010 fbb8 c04b b0bd 298a b43e
00000010: d57a 073d 15ed 513e 6a87 7bbe f23e 843e
00000020: 3ecb 02bd 0be4 873e 4f5a 183e 79e0 f53d
00000030: cb94 d63b c282 073e 3c3a 8dbd 7f18 0a3e
00000040: 8fb8 e4bd 21cf 6a3d f14d d93d 3c7d fa3d
00000050: 751a 83bd 3956 033d c9a1 18bd 32f2 83be
00000060: 444a c13e 9b66 bfbf 3966 893c ae68 2d3e
00000070: c3e6 9cbc c820 d93d b52d 4a3d 2769 fabe
00000080: 44d3 943e b607 2cbf 9c33 cbbd 50fa 833e
00000090: 7fab 87bb c205 2b3e d1a1 65bd 4bef 393e
000000a0: 334d 3c3e dc49 2d3e ca24 77be 883f 123d
000000b0: 99e4 9c3c b588 133f dd2d 31bc dbaa a13e
000000c0: 5055 0bbc 5be6 8a3e 53c3 49bd 9335 6c3e
000000d0: ceee 393d 8979 393e 4d0c 013d c4ed 1c3e
000000e0: 4b68 c83c 71b6 b43d 6f80 82bb 3638 c5bf
000000f0: 9649 e83c 4fcf 3d3e 4c61 87bb a884 123e
00000100: 274c bebc cc39 0e3e c0f3 11bd 3b03 9d3d
00000110: be23 d73c e8e2 323e be8b 9abc 76e6 fc3d
00000120: 1a6a ecbc ba85 393d 2144 ebbc 66ea 503c
00000130: 5eff b6bb c6cd 463e 4016 2ebc fed2 b33d
00000140: 105d 22bd ff54 903b 0a44 c5bc 18cc 31bd
00000150: 84b4 7ebe b0d3 523e 28ee ef3d f0f4 b33e
00000160: 1162 bf3b 1b1c 743e b8f2 42bd b80e 853e
00000170: 6b79 dabc cdd7 883e ad8c 5a3d 686f fc3d
00000180: 70b0 74bc 86b2 c23c e1b1 1ebc bacb e2bc
00000190: 7969 94bc 0dc1 90bd 3b3c 993d c78d e93d
000001a0: e8bc b0bc efea 953d 4892 163d 50fa 813d
000001b0: 8d2f b83c 6379 903d c367 d53d 3d18 133e
000001c0: 914b 1dbd 8e22 c33d 0f3c a5bd ab6e c93d
000001d0: 1397 36be 9c1f e9bf d501 f83d 00be 0f3e
000001e0: 66da 5f3d db46 1f3e 53bc 51bc 4f19 3d3e
000001f0: 0878 55bd 7fa2 4f3e d61f 383e 50ba 5b3e
00000200: 1d90 483f 01f7 e5be 6c93 043f e0ee 6abe
00000210: 4c13 ce3e 0ef7 c0be f193 5e3e 28ee a5be
00000220: 2187 c73e a448 d0bc 8a38 c43c 22b0 afbc
00000230: 4753 5fbe c62e 3a3e 8cc8 99be 0b53 af3d
00000240: a530 b43e a28a 45bd 1757 a63d eaad c7bd
00000250: 37e9 24be df92 f13d bb7f 5abe 820f 1e3e
00000260: b3d8 a73e dd1c e3bd 0190 413e 2f87 2bbe
00000270: 1813 98bd d260 ea3d 9b06 2abe 1006 fa3d
00000280: c10b 5b3e cae2 87be cda1 903e af1f e6bd
00000290: 4c37 113e ab48 b83d 3615 9f3b 26aa 323e
000002a0: 68fb 743e 9879 5a3e 0322 20bd cad0 293f
000002b0: 11bd fdbb 319d ae3e 560e 9cbc b299 873e
000002c0: 0079 d5bc 3e25 843e a3ea a73c 3f29 393e
000002d0: 919f 1e39 656e 143e 9088 213d 5bc9 753d
000002e0: 676c 983d 032f bfbf 4e4b 713c 06a0 2b3e
000002f0: 4825 833a 4e88 1f3e 2eff 31bd ae8b 1a3e
00000300: 1a21 d1bc 7e08 bf3d 4331 b53c 4120 2e3e
00000310: 3ae3 51bc 6b8a e03d ee3c 18bd c10c 863d
00000320: 6d2b 14bd d299 d53b 2d10 f53c 600c 063e
00000330: 1f7c ae3b 446e ac3d 68ef e5bc 943d c738
00000340: c75e 11bd 4c0b 77bd 085f 53be 4870 9d3e
00000350: ae7c a6bc 4473 75bd f976 fe3b 5c43 f13d
00000360: ea96 e0bd 3383 c43d e7e4 e1be 336e 933d
00000370: 1e52 983b 9a38 0b3d dff4 e8bc d885 333d
00000380: 2ae0 983d e722 863d 8963 fc3d 08f0 663d
00000390: 2b43 2ebc b35d 6cbc 988c 30bd b89b e23d
000003a0: e008 1b3c 8870 fb3d a962 c93d 9b02 063e
000003b0: 9bc6 a6bd 669c 0e3d ae4c b1bd 8a7c 823d
000003c0: 87ee b8bb 1e16 4bbe af07 413f f815 ddbe
000003d0: 8472 eabd 83be 173e 14cb 21be 6f1f 4b3d
000003e0: 4aba 2b3d 6829 debe 80e7 5e3e 4f02 aabf
000003f0: 6f0c 8abe e6f2 313e 2d51 193d 3d75 1fbf

sequential_2/dense_7/MatMul f4 [10, 20]
0.6174069 0.15317902 1.2561845 -0.61497253 0.06391262 0.43122286 -0.15047818 0.023763452
-0.11217308 -0.28612143 -0.7622381 0.70649505 -0.9471851 -0.989977 0.41757524 -0.34369993
0.15283725 0.8469408 0.3257227 -0.23595418 0.5465592 0.006571678 0.4456753 -0.12447648
-0.0039654123 0.6594902 0.038161267 -0.42628878 0.09782205 0.010708549 -0.038240753 0.3368062
0.18164998 -0.16878231 0.12197665 0.8414478 0.011126607 -0.8632269 0.23394178 -0.21521972
0.06847076 0.32772905 -1.6283082 0.14166793 0.27436304 -0.9558478 0.2474757 0.30534652
-0.62951124 0.07251664 -0.023426678 -0.4425693 -0.46363914 -0.56802106 0.3853452 0.1651862
0.11327427 0.07087499 -0.609441 -0.36941683 -1.1860697 -0.04688492 -0.06968518 0.06641572
-0.034075305 -0.50137806 0.24312823 0.31808704 0.20024338 0.38318753 0.69103575 0.49358553
-0.025217403 0.46044585 -0.02313326 0.7134688 -0.05912856 -0.697265 -0.966136 0.013401275
-0.19682278 1.5432187 -0.27311268 -0.32084304 1.5976577 0.7265667 0.30444637 -0.10363734
-0.14853203 0.6020992 0.12667908 -0.9981419 -0.35552862 0.44708824 0.54469746 -0.15746695
-0.3073595 0.47899297 0.7373702 -0.39549354 0.10932371 -0.6800907 1.0792004 0.96779317
-0.52741826 0.2281382 0.4456781 0.09121231 0.48492154 0.016582787 -0.007893877 0.71978694
0.47302154 -0.003145349 0.3829572 0.8123379 1.2511983 0.70465904 0.48996544 -0.04903438
0.08672966 1.1765139 0.4184808 0.48068377 1.2967229 0.10326283 -0.5836113 -0.7919207
0.87000364 -0.5320326 -0.8819452 0.20955339 -0.009713916 -0.1609296 -0.0328417 -0.117942095
0.317777 -0.020802798 -0.064114064 0.35748622 0.119764335 0.30666327 -0.38271484 0.58117956
0.278537 0.40106666 0.5632537 0.84861356 0.30643803 0.5413801 0.8736725 0.70783764
0.07318428 0.6706369 0.4908756 0.65638596 0.82290024 0.35133857 0.41588092 0.31273177
0.40424064 -0.79677385 -0.37069553 0.37029618 -0.7277861 0.3501856 0.93198895 -0.23867686
-0.6600341 0.82327753 0.34949434 -0.39569074 -0.55846715 0.57056624 0.5839268 -0.08321838
0.7820283 0.4491762 0.38198274 -0.7643142 0.79420537 0.7719753 0.21414573 -0.4211304
0.7666698 -0.4054365 -0.81950074 0.118230626 0.76866835 -0.34458363 0.3390086 -0.20388494
0.87776506 0.7397683 0.18843494 0.15597227 -0.4359563 0.31814662 -0.17273118 0.7145288
00000000: 610e 1e3f f6da 1c3e a7ca a03f d76e 1dbf
00000010: 9fe4 823d 3ec9 dc3e f416 1abe 92ab c23c
00000020: 00bb e5bd 827e 92be 0922 43bf dcdc 343f
00000030: b97a 72bf 226f 7dbf 6ccc d53e 70f9 afbe
00000040: 5e81 1c3e 1dd1 583f 20c5 a63e f99d 71be
00000050: 4eeb 0b3f 3b57 d73b 8e2f e43e 86ed febd
00000060: 4af0 81bb 5ad4 283f fd4e 1c3d 8642 dabe
00000070: ed56 c83d e972 2f3c 56a2 1cbd dd71 ac3e
00000080: 7402 3a3e 45d5 2cbe e5ce f93d 1f69 573f
00000090: 5f4c 363c 70fc 5cbf 6f8e 6f3e 8f62 5cbe
000000a0: 663a 8c3d 1acc a73e 676c d0bf 6611 113e
000000b0: 5079 8c3e 71b2 74bf 456a 7d3e 6156 9c3e
000000c0: a627 21bf 9b83 943d 4ee9 bfbc 7198 e2be
000000d0: 1c62 edbe d469 11bf f74b c53e 9226 293e
000000e0: 57fc e73d e826 913d 5304 1cbf 3424 bdbe
000000f0: 22d1 97bf 670a 40bd 1bb7 8ebd f704 883d
00000100: 8c92 0bbd 505a 00bf 9bf6 783e 4edc a23e
00000110: 9a0c 4d3e 2831 c43e b8e7 303f 3eb7 fc3e
00000120: ba94 cebc 8fbf eb3e f681 bdbc e4a5 363f
00000130: ca30 72bd f67f 32bf b054 77bf 0591 5b3c
00000140: e98b 49be 3188 c53f 6dd5 8bbe 8a45 a4be
00000150: 0c80 cc3f 4600 3a3f 65e0 9b3e d03f d4bd
00000160: c818 18be 2c23 1a3f 29b8 013e 3a86 7fbf
00000170: d907 b6be c0e8 e43e 4b71 0b3f 043f 21be
00000180: 395e 9dbe 913e f53e 4bc4 3c3f 217e cabe
00000190: 1ce5 df3d 6d1a 2ebf 3d23 8a3f 4bc1 773f
000001a0: e204 07bf 0f9d 693e ec2f e43e 85cd ba3d
000001b0: a347 f83e a0d8 873c 5255 01bc f543 383f
000001c0: e12f f23e 3322 4ebb f712 c43e 60f5 4f3f
000001d0: 4427 a03f 8964 343f c0dc fa3e 46d8 48bd
000001e0: 529f b13d 0298 963f 1e43 d63e 2f1c f63e
000001f0: 04fb a53f 767b d33d 8d67 15bf 51bb 4abf
00000200: 8fb8 5e3f 4a33 08bf 29c7 61bf 2a95 563e
00000210: 1e27 1fbc bbca 24be 0585 06bd a08b f1bd
00000220: abb3 a23e a16a aabc 3c4e 83bd 6f08 b73e
00000230: 0147 f53d f802 9d3e 33f3 c3be 2fc8 143f
00000240: 679c 8e3e 9c58 cd3e 6531 103f bd3e 593f
00000250: 72e5 9c3e e397 0a3f 00a9 5f3f d934 353f
00000260: a4e1 953d dcae 2b3f 0c54 fb3e e908 283f
00000270: 97a9 523f a6e2 b33e 58ee d43e 611e a03e
00000280: a1f8 ce3e 5ff9 4bbf cecb bdbe 7697 bd3e
00000290: 3150 3abf 874b b33e d496 6e3f b567 74be
000002a0: fff7 28bf 51c2 523f ecf0 b23e fa97 cabe
000002b0: b4f7 0ebf a110 123f 3a7c 153f 666e aabd
000002c0: 0233 483f 6cfa e53e 3e93 c33e 18aa 43bf
000002d0: 0b51 4b3f 2ca0 453f 0549 5b3e 679e d7be
000002e0: 7944 443f 5f95 cfbe cdca 51bf e622 f23d
000002f0: 73c7 443f 446d b0be 8992 ad3e 37c7 50be
00000300: 36b5 603f 7561 3d3f 17f5 403e 32b7 1f3e
00000310: aa35 dfbe 1de4 a23e 71e0 30be 5ceb 363f

sequential_2/dense_8/MatMul f4 [8, 10]
0.62150365 0.8213999 -0.7705467 -0.09855411 0.051588573 0.4001022 -0.37809038 0.3580023
-0.6972037 0.3211273 -0.79742825 -0.37756506 -0.5416587 -0.6595282 -0.5508922 0.88905895
0.6757453 0.65503794 0.5189118 -0.22592579 -0.8586866 -0.8967927 -0.025764933 0.4079132
0.4255885 -0.12765132 -0.51144236 -0.5266268 0.1940291 0.49801767 0.7724855 0.99101716
-0.6796117 -0.36032596 -0.36799315 0.80180764 -1.3946071 -0.8359021 0.5823814 -0.38155663
-0.16937573 -0.8846839 0.5799787 -1.1380827 0.08613903 -0.25492355 -0.7308815 -0.7103267
0.18481378 0.8457005 -0.3670971 -0.16968597 0.3487142 0.8953293 -1.886337 0.3458972
-0.8618692 -0.06702507 0.3103624 -1.607366 -0.61110616 -0.11539115 -1.0997771 -0.61184514
-0.5437368 0.39841488 1.059772 -1.3260194 -1.0620277 0.4296136 0.0927441 -0.50144553
-0.33225706 -1.0315146 1.0617422 -0.64347374 -0.07742457 -0.48764616 0.63344526 -0.83073515
00000000: dd1a 1f3f 4447 523f 8c42 45bf bdd6 c9bd
00000010: 8a4e 533d 32da cc3e 1095 c1be 144c b73e
00000020: f17b 32bf cc6a a43e 4224 4cbf 3550 c1be
00000030: 25aa 0abf d7d6 28bf 4507 0dbf 5e99 633f
00000040: a5fd 2c3f 91b0 273f 67d7 043f 1759 67be
00000050: e3d2 5bbf 3594 65bf fb10 d3bc 00da d03e
00000060: bce6 d93e 07b7 02be e3ed 02bf 04d1 06bf
00000070: 90af 463e 2cfc fe3e 9cc1 453f 4db3 7d3f
00000080: 08fb 2dbf a57c b8be 9969 bcbe 4443 4d3f
00000090: 7c82 b2bf aefd 55bf f316 153f 645b c3be
000000a0: d570 2dbe a57a 62bf 7c79 143f b2ac 91bf
000000b0: a969 b03d 5785 82be 0d1b 3bbf f8d7 35bf
000000c0: d33f 3d3e d47f 583f 27f4 bbbe 29c2 2dbe
000000d0: ab8a b23e 4d34 653f 7e73 f1bf 7019 b13e
000000e0: 76a3 5cbf 7144 89bd d2e7 9e3e 2bbe cdbf
000000f0: 7471 1cbf 3252 ecbd 7fc5 8cbf e2a1 1cbf
00000100: 5632 0bbf 09fd cb3e 9ca6 873f 01bb a9bf
00000110: 86f0 87bf 50f6 db3e 9ef0 bd3d bc5e 00bf
00000120: 991d aabe ac08 84bf 2be7 873f b2ba 24bf
00000130: c690 9ebd c2ac f9be 7829 223f 0fab 54bf
