ros2_hgr/model/keypoint_classifier/keypoint_classifier.tflite (tflite, 6720 bytes, 6 tensors)

sequential/dense/BiasAdd/ReadVariableOp f4 [20]
0	0xbf33e77b	-0.70275086
1	0x3d457d4a	0.048215188
2	0xbf29541e	-0.6614398
3	0xbee92b51	-0.4554086
4	0xbf4ce38d	-0.80034715
5	0xbf52b528	-0.8230767
6	0x3f5f19ef	0.87148947
7	0xbef7f7cf	-0.4843125
8	0xbf15d8a9	-0.5853372
9	0xbf0765dc	-0.528898
10	0x3cb8494c	0.022495888
11	0xbf33b197	-0.70192856
12	0xbf51b89f	-0.81922334
13	0xbf0f8b41	-0.5607186
14	0xbf84e762	-1.0383112
15	0xbf4d441c	-0.8018205
16	0xbe969c0a	-0.29415923
17	0xbf4fd433	-0.81183165
18	0xbf313daa	-0.69234717
19	0xbf07b4c8	-0.53010225

sequential/dense_2/BiasAdd/ReadVariableOp f4 [8]
0	0xbe5c18da	-0.21493855
1	0xbe2e7f51	-0.17040755
2	0x3eada060	0.3391142
3	0x3ea9e470	0.33182096
4	0x3df1ddb2	0.11809863
5	0x3e77ba26	0.24192104
6	0x3e1be153	0.15222673
7	0xbf006d5b	-0.50166863

sequential/dense_1/BiasAdd/ReadVariableOp f4 [10]
0	0x3e99c1c3	0.3003064
1	0x3f1c6a34	0.61099553
2	0x3e827c3f	0.25485417
3	0x3f6916ee	0.9105061
4	0x3df78cec	0.120874256
5	0x3f0adb0e	0.542405
6	0xbd9d57d0	-0.076827645
7	0x3dc657a7	0.09684687
8	0x3f3cfc88	0.7382283
9	0x3d8ae7fa	0.06782527

sequential/dense/MatMul f4 [20, 42]
0	0xbd3f2150	-0.04666263
1	0xbc206380	-0.009789348
2	0xbf1d32f2	-0.6140586
3	0x3ebae28b	0.36500964
4	0xbeb33e66	-0.35008544
5	0x3d8a819f	0.067630045
6	0x3d0d2ad8	0.034464687
7	0xbb668345	-0.0035173458
8	0x3f28955d	0.6585291
9	0xbe1b628e	-0.15174314
10	0xbeed7230	-0.4637618
11	0xbe8af3c5	-0.27139106
12	0xbd99937f	-0.07498836
13	0xbe76c127	-0.2409712
14	0x3ce3f7d8	0.027828142
15	0x3b3c9514	0.002877538
16	0x3e5446e9	0.20730175
17	0x3e21b553	0.15791826
18	0xbe7f0adc	-0.24906486
19	0xbed33faf	-0.41259524
20	0xbcc17efc	-0.023620121
21	0xbdbb9512	-0.09159292
22	0xbd589ed0	-0.05288583
23	0x3eacb78b	0.33733782
24	0xbddd564b	-0.10807475
25	0x3e7edeeb	0.24889724
26	0xbc278431	-0.010224388
27	0xbf3677a3	-0.712763
28	0x3daaf929	0.08348305
29	0xbe1b314c	-0.15155524
30	0x3d2843d9	0.04108033
31	0x3e0bf935	0.13669284
32	0xbd6e0ab8	-0.05811569
33	0x3dc64106	0.09680371
34	0x3dc42d51	0.09578956
35	0xbf46266d	-0.77402383
36	0x3e680491	0.22657992
37	0xbe9f66fc	-0.31133258
38	0x3e126c10	0.14299035
39	0x3e482622	0.19545797
40	0xbb2d1f02	-0.0026416187
41	0x3e82adad	0.2552313
42	0x3e01c078	0.12671077
43	0xbdec0688	-0.11524683
44	0xbdaca92a	-0.08430703
45	0x3f0c14b2	0.5471908
46	0xb9c83311	-0.0003818502
47	0x3e97c9b9	0.2964609
48	0xbd8278a5	-0.06370667
49	0x3e830847	0.25592253
50	0xbd95789b	-0.07298394
51	0x3e84c0ee	0.25928444
52	0x3c1c0cd7	0.009524546
53	0x3e16a534	0.14711457
54	0x3d084d56	0.03327688
55	0x3de4995b	0.11162063
56	0x3d610794	0.054938868
57	0x3dcdb5b2	0.10044421
58	0x3d0b9d34	0.034085467
59	0xbfc18995	-1.5120112
60	0x3c838f7d	0.016059631
61	0x3e23a2e7	0.15980111
62	0x3cb102e8	0.021607831
63	0x3e10b247	0.14130507
64	0xbd11e71d	-0.035620797
65	0x3df46f4c	0.11935291
66	0x3ca08abc	0.019597404
67	0x3d18dee7	0.03732195
68	0xbbe8a929	-0.0071002436
69	0x3e1518ef	0.14560293
70	0xbbe6546b	-0.0070291064
71	0x3df34b3a	0.11879583
72	0xbd32007a	-0.043457486
73	0x3dbd01c6	0.09228854
74	0xbd6f5c6a	-0.058437742
75	0x3cedc765	0.029025743
76	0xbbc235ab	-0.005926808
77	0x3dfb8be1	0.12282539
78	0xbb99670c	-0.0046814736
79	0x3dbec7a8	0.09315425
80	0xbd4d8760	-0.05017793
81	0x3d4e1b64	0.05031909
82	0xbc478897	-0.012178562
83	0xbcb8cbb7	-0.022558076
84	0x3d539b90	0.051662028
85	0x3e163de0	0.14672041
86	0x3e805c56	0.25070447
87	0x3f072f46	0.5280651
88	0x3e73d40e	0.23811361
89	0x3d990d1b	0.07473203
90	0x3f0a5f2e	0.5405148
91	0x3d9dcf4b	0.077055536
92	0x3f5faf3c	0.8737676
93	0x3df912aa	0.12161763
94	0xbe9d701e	-0.307496
95	0xbdf8bfa8	-0.121459305
96	0xbddf3b8f	-0.10900032
97	0x3d1b430e	0.037905745
98	0x3dc52c28	0.09627563
99	0xbcb3731c	-0.021905474
100	0x3e3247a3	0.1741014
101	0xbd6e8c52	-0.05823929
102	0xbe3d0440	-0.18458652
103	0xbd5514b3	-0.052021693
104	0xbda3591a	-0.07975979
105	0x3d13e13a	0.036103465
106	0xbbe22371	-0.0069011976
107	0xbd5a5d77	-0.05331179
108	0xb99c0448	-0.00029757828
109	0xbd5abd79	-0.05340335
110	0xbd468be2	-0.048473246
111	0x3c61d441	0.013783515
112	0xbe6b77d7	-0.22994934
113	0x3d4fd4d2	0.05074007
114	0xbeda1ff0	-0.4260249
115	0xbe87283a	-0.26397878
116	0xbf5e19af	-0.8675794
117	0x3d924460	0.07141948
118	0x3e196b99	0.14982451
119	0x3e0c5c1e	0.13707015
120	0xbe2eadf3	-0.17058544
121	0x3de48e9c	0.11160013
122	0xbf1857c8	-0.59508944
123	0x3d691891	0.056908194
124	0xbf548d77	-0.8302836
125	0xbdd4291c	-0.103594035
126	0x3e867e44	0.26268208
127	0x3e7008d4	0.23440868
128	0xbd14a493	-0.036289763
129	0xbe5fa746	-0.21841154
130	0xbde87da0	-0.11352086
131	0xbe9589ff	-0.29206845
132	0xbea2ad24	-0.3177272
133	0xbe9f7e1e	-0.31150907
134	0xbf0b3a07	-0.5438542
135	0xbe867b00	-0.26265717
136	0xbb7bc588	-0.0038417298
137	0x3daa5a06	0.08317952
138	0x3c870aee	0.016484704
139	0xba634e49	-0.0008671028
140	0x3d1627a9	0.036658917
141	0x3ad1f6b2	0.0016018956
142	0x3d2c13bc	0.042011008
143	0xbd2ef963	-0.042718302
144	0xbe066344	-0.13123804
145	0x3d4406e4	0.047858134
146	0x3c0abeb3	0.008468318
147	0xbd6bc971	-0.057565156
148	0x3dedcea9	0.11611683
149	0xbd38c739	-0.04511187
150	0x3e609d29	0.21934952
151	0x3ce42219	0.02784829
152	0xbe3e4c1a	-0.18583718
153	0x3db0d901	0.0863514
154	0xb94ea2e5	-0.00019706374
155	0xbe2782bf	-0.1635847
156	0x3e992041	0.2990742
157	0x3d340198	0.043946832
158	0x3f19ef62	0.60130894
159	0x3fb642f9	1.4239188
160	0xbe963003	-0.29333505
161	0x3e022b47	0.12711821
162	0xbdad1390	-0.08450997
163	0xbd514244	-0.051088586
164	0x3e3a83b9	0.1821431
165	0xbd2265fb	-0.039648037
166	0x3f09fcd0	0.53901386
167	0x3ef11d6a	0.47092754
168	0xbe835d33	-0.25657043
169	0xbe81e896	-0.2537276
170	0x3ed3d895	0.41376176
171	0x4001c8d6	2.027883
172	0x3e6373db	0.22212164
173	0x3f65444f	0.89557356
174	0x3dda3428	0.10654479
175	0x3f03ca87	0.5148091
176	0x3e790bf6	0.24320969
177	0x3edb734d	0.42861405
178	0x3dd02739	0.10163731
179	0x3eb4b703	0.35295877
180	0x3d023b54	0.03179486
181	0x3d432bbc	0.04764913
182	0x3a91e98f	0.0011132228
183	0xbe3ccb4c	-0.18436927
184	0xbd76cd0e	-0.06025415
185	0xbe6a2546	-0.22865781
186	0x3d8e8b11	0.069601186
187	0x3e4505ca	0.1924049
188	0x3c470d66	0.0121491905
189	0x3d6aa709	0.057288203
190	0xbd617362	-0.05504168
191	0xbdb9a04e	-0.09063779
192	0xbd1c3bcb	-0.03814296
193	0xbe441d0f	-0.1915171
194	0x3db15477	0.086586885
195	0x3b1d1f01	0.0023974779
196	0x3c4aa238	0.0123677775
197	0xbd3be0b6	-0.045868598
198	0xbd3dbcb5	-0.046322543
199	0xbdfcbb28	-0.12340385
200	0xbdd55c3c	-0.10417983
201	0xbe7287c6	-0.23684606
202	0x3b46600d	0.0030269653
203	0xbe73cd9f	-0.23808907
204	0xbd443b00	-0.04790783
205	0xbe13de6d	-0.14440317
206	0xbde07b2a	-0.10960992
207	0xbda91a43	-0.08256962
208	0xbe35f07d	-0.1776752
209	0xbd5be434	-0.05368443
210	0x3e79fd80	0.24413109
211	0xbe13c5f2	-0.14430979
212	0x3dcead32	0.10091628
213	0xbf2ef68b	-0.68344945
214	0x3e3c1a24	0.18369347
215	0xbe97899d	-0.29597178
216	0x3d0edf08	0.034880668
217	0xbe5043ff	-0.20338438
218	0xbc44ad5e	-0.012004225
219	0xbe38e394	-0.18055564
220	0x3e5d26c4	0.21596819
221	0xbd77dd56	-0.060513817
222	0x39ba43a0	0.0003552707
223	0xbd94a6fc	-0.07258412
224	0xbd4e213e	-0.05032467
225	0x3da571fc	0.080783814
226	0xbded9746	-0.11601119
227	0x3d83cea0	0.06435895
228	0x3dbe9756	0.09306209
229	0xbd6047ee	-0.054756097
230	0x3dc9fdfb	0.09862896
231	0xba8ea5ae	-0.0010883117
232	0xbd5a659b	-0.053319555
233	0x3e475cf9	0.1946906
234	0xbde04a96	-0.10951726
235	0x3e331d16	0.17491564
236	0x3e18ca90	0.14921021
237	0xbd9943be	-0.07483624
238	0x3dd51f72	0.10406388
239	0xbd6d89b2	-0.057992645
240	0x3d4c971a	0.04994879
241	0x3dead319	0.11466045
242	0xbd1d2c08	-0.03837207
243	0x3e7ca2a4	0.24671417
244	0x3bd46bbc	0.0064825695
245	0xbe25c682	-0.16189006
246	0x3d74c5e4	0.059759036
247	0xbeced3af	-0.40395877
248	0x3d847f21	0.064695604
249	0xbf35a1b3	-0.7094986
250	0x3d1d8e3e	0.03846573
251	0xbf28ed84	-0.6598742
252	0x3e90676e	0.2820391
253	0xbe11f217	-0.14252506
254	0xbed2d8a6	-0.41180915
255	0x3fad374a	1.3532498

sequential/dense_1/MatMul f4 [10, 20]
0	0x3e18bbfa	0.14915457
1	0xbfac51a7	-1.3462418
2	0x3f46a8ca	0.776013
3	0xbaf2e8e4	-0.0018532542
4	0xbf1652ec	-0.5872028
5	0x3e60179f	0.2188401
6	0x3f20f8c5	0.6287959
7	0x3eca3664	0.39494622
8	0x3f09f745	0.5389293
9	0xbee46731	-0.4460998
10	0xbe559917	-0.2085918
11	0xbe7887cd	-0.24270554
12	0x3ea43409	0.3207095
13	0xbc87bb44	-0.016568787
14	0xbe7e8807	-0.24856578
15	0xbf0ca158	-0.5493369
16	0xbf9be8f5	-1.2180468
17	0xbe82a80f	-0.25518844
18	0xbd887c22	-0.066643015
19	0x3ef7a1df	0.48365685
20	0x3f41f770	0.75768185
21	0x3ee6b6a3	0.45061216
22	0xbf1a365e	-0.6023921
23	0xbedd53d4	-0.43228018
24	0xbe11686e	-0.14199993
25	0xbf45a3e8	-0.77203226
26	0x3f1fed0c	0.6247108
27	0xbf8a4e78	-1.0805197
28	0x3e00822a	0.12549654
29	0xbe935036	-0.28772134
30	0x3eb435ec	0.3519739
31	0x3d445a18	0.047937483
32	0xbe1b2a6a	-0.15152898
33	0xbea098b2	-0.31366497
34	0x3ecd7119	0.4012535
35	0xbe9f6816	-0.311341
36	0x3ed28104	0.41114056
37	0xbc9ec576	-0.019381266
38	0xbc84a9ba	-0.016194213
39	0xbf897f37	-1.0741948
40	0x3eadc937	0.33942577
41	0xbe0c975a	-0.13729611
42	0xbe818fa0	-0.2530489
43	0xbf048627	-0.517672
44	0xbfa70bd6	-1.3050487
45	0x3f654200	0.89553833
46	0xbe9449ee	-0.28962654
47	0xbef5f8bd	-0.48041335
48	0x3f474fb7	0.7785601
49	0xbce3e6e7	-0.027820064
50	0x3e55d7cc	0.20883101
51	0x3f899bc9	1.0750667
52	0x3f73fcfb	0.9530789
53	0xbe0c890f	-0.13724159
54	0xbd18900d	-0.037246753
55	0xbeae10dd	-0.3399724
56	0x3e34c7d1	0.17654349
57	0x3e977948	0.29584718
58	0x3ead9df6	0.33909577
59	0x3d4ce071	0.05001873
60	0x3ec8983e	0.39178652
61	0xbd85387b	-0.065049134
62	0x3ebda3ac	0.37038934
63	0x3e203aaa	0.15647379
64	0x3ea6f9cc	0.32612455
65	0xbe0cced3	-0.13750772
66	0x3f0714be	0.52766025
67	0xbf10149b	-0.5628144
68	0xbe9674b1	-0.29385903
69	0x3f24bf2e	0.6435422
70	0x3dfd98cc	0.12382659
71	0xbde470c6	-0.11154322
72	0xbe5ec1f0	-0.21753669
73	0x3f4eff09	0.808579
74	0x3ece28b4	0.4026543
75	0x3e98ddc7	0.29856703
76	0x3e0d7178	0.13812816
77	0x3f03f16c	0.51540256
78	0x3f6bcbcf	0.9210786
79	0xbfd23bd9	-1.6424514
80	0xbf054a64	-0.52066636
81	0x3eac7b04	0.33687603
82	0x3f580991	0.843896
83	0x3f3f27b0	0.74669933
84	0x3e0111aa	0.12604395
85	0xbee26f57	-0.4422557
86	0x3eb70ffa	0.35754377
87	0x3e1f13c2	0.15534881
88	0x3fae889b	1.3635439
89	0x3f64279a	0.8912293
90	0x3e4a0edb	0.1973223
91	0x3ed26e1b	0.4109963
92	0xbd93dee4	-0.072202474
93	0x3e9df540	0.30851173
94	0x3d721897	0.059105482
95	0x3e3f29c0	0.1866827
96	0x3eb98961	0.36237624
97	0x3e2741e4	0.16333729
98	0xbecdf428	-0.4022534
99	0x3f0ca149	0.549336
100	0x3e01c2fa	0.12672034
101	0x3fbfc13d	1.4980847
102	0xbd28a8af	-0.041176494
103	0xbea0767c	-0.31340396
104	0x3f24f13a	0.6443058
105	0xbdc88a55	-0.0979201
106	0x3f28cae8	0.6593461
107	0x3e943486	0.28946322
108	0xbe9dee43	-0.30845842
109	0x3d696cb5	0.056988437
110	0xbd090f52	-0.033461876
111	0xbd1a89ed	-0.037729193
112	0x3f014d51	0.505086
113	0x3af9481c	0.0019018683
114	0xbe7d65e6	-0.24745902
115	0x3f0a8c31	0.54120165
116	0x3fd5b1cc	1.6694884
117	0x3ee8203c	0.45337093
118	0xbef39669	-0.4757569
119	0x3ebd7987	0.3700678
120	0x3e4e492f	0.20145105
121	0x3df87036	0.121307775
122	0x3f07af20	0.53001595
123	0xbedf0d05	-0.4356462
124	0x3fbfe3d1	1.4991399
125	0xbca5f02f	-0.02025613
126	0x3f1035a2	0.5633184
127	0x3ead0cfb	0.33798966
128	0x3eb32c65	0.34994808
129	0xbe418dd0	-0.18901753
130	0xbde25143	-0.11050656
131	0x3d8b57c1	0.06803847
132	0x3dab0ecf	0.08352434
133	0x3ead22dd	0.3381566
134	0x3f8f91eb	1.1216406
135	0x3fa978ad	1.3239952
136	0x3cb3f1d0	0.021965891
137	0x3f71400b	0.94238347
138	0xbf3445f5	-0.70419246
139	0xbd6a68f6	-0.057229005
140	0x3ef22f9e	0.47301954
141	0xbee41016	-0.44543523
142	0xbd0e8916	-0.034798704
143	0x3f55f94a	0.8358351
144	0x3d8b7218	0.06808871
145	0xbc075a12	-0.0082612205
146	0x3efc57dc	0.4928578
147	0x3f38e37b	0.7222211
148	0x3f3d0b5d	0.73845464
149	0x3eaa9953	0.33320102
150	0x3d8b29cc	0.067950815
151	0x3f101c71	0.562934
152	0x3f41ad07	0.75654644
153	0x3f13168a	0.57456267
154	0x3ebfb26b	0.3744081
155	0x3df00c6c	0.11721119
156	0xbe1562cd	-0.14588471
157	0x3f7c25f6	0.98495424
158	0x3eb137b7	0.3461282
159	0x401040d9	2.253958
160	0x3ed2f660	0.41203594
161	0x3f07c233	0.530307
162	0xbf202c51	-0.6256762
163	0xbe6d62c0	-0.23182201
164	0xbda8e5de	-0.08246969
165	0xbd910463	-0.07080915
166	0x3d84ff75	0.06494037
167	0xbf619407	-0.88116497
168	0x3e8e82a1	0.27834037
169	0x3ef3ade4	0.47593606
170	0x3f889a0f	1.0672015
171	0x3e02eef6	0.12786469
172	0x3e175d76	0.14781746
173	0x3f5e6d52	0.8688556
174	0x3e385102	0.17999652
175	0xbd9affa0	-0.07568288
176	0x3f6bd502	0.921219
177	0x3e4b2106	0.19836816
178	0xbc9c2b3a	-0.01906358
179	0xbe8ba9ab	-0.27277884
180	0x3f03dc04	0.5150759
181	0xbc83cccc	-0.016088866
182	0x3eebf8db	0.460883
183	0x3f5dea95	0.8668607
184	0x3e0cf424	0.13765007
185	0x3fa62096	1.2978694
186	0x3dbb5036	0.091461584
187	0x3e897d2b	0.26853308
188	0xbe7e3002	-0.24823001
189	0x3fc9af1b	1.5756563
190	0x3f2c99bf	0.674221
191	0x3e87a9c9	0.26496723
192	0x3f6fe455	0.9370778
193	0x3f284512	0.6573039
194	0x3f95124a	1.1646206
195	0x3dfafdc3	0.122554325
196	0x3dc9bcb5	0.09850446
197	0x3f7b161b	0.98080605
198	0x3f1e107a	0.6174389
199	0x3e277d8f	0.1635649

sequential/dense_2/MatMul f4 [8, 10]
0	0xbd5ff383	-0.05467559
1	0xbf1a8f4f	-0.6037492
2	0xbec390d5	-0.38196436
3	0xbee40056	-0.44531506
4	0x3f84b85f	1.0368766
5	0x3e829895	0.25507036
6	0xbd7f98f7	-0.062401738
7	0x3f1ba01a	0.6079117
8	0x3d94d9b6	0.072680876
9	0x3eed5c0a	0.46359283
10	0xbeec04b9	-0.46097353
11	0xbe147338	-0.14497077
12	0x3e35c456	0.17750677
13	0x3f507f5a	0.81444323
14	0xbf0b4444	-0.5440104
15	0xbf088d4c	-0.533406
16	0x3f320cd9	0.69550854
17	0x3e8acad0	0.2710786
18	0x3e2b0ea1	0.16704799
19	0x3ec5c86f	0.3862948
20	0xbcb9604c	-0.022628926
21	0x3f4e027f	0.8047256
22	0xbf300a43	-0.6876566
23	0x3f2c298f	0.67250913
24	0xbf41ef32	-0.7575561
25	0x3d73e337	0.05954286
26	0xbf506421	-0.81402785
27	0xbda5fc84	-0.08104804
28	0x3f06f992	0.52724564
29	0xbe902414	-0.28152525
30	0x3f9ab991	1.208788
31	0xbe03cac2	-0.12870315
32	0x3ed52d99	0.4163635
33	0xbf0da814	-0.5533459
34	0x3e821eeb	0.25414214
35	0xbf325ce5	-0.69672996
36	0xbf83ca83	-1.0296177
37	0x3f4786bc	0.77939963
38	0xbf5a5823	-0.85290736
39	0xbccb8b09	-0.02484657
40	0x3efe40f6	0.49658936
41	0x3f557ba5	0.8339179
42	0x3ed28beb	0.41122374
43	0x3dc25aea	0.09489997
44	0x3f6ffc9d	0.9374483
45	0xbec6fae4	-0.3886329
46	0xbf72677f	-0.9468917
47	0xbf205a79	-0.6263805
48	0x3f0989c5	0.53725845
49	0xbfad9f1c	-1.3564181
50	0xbdc05d6f	-0.09392821
51	0xbf3ee91b	-0.7457444
52	0xbfcacfce	-1.5844667
53	0x3f562445	0.8364909
54	0xbe38be2d	-0.18041296
55	0xbff820ab	-1.938497
56	0xbe980357	-0.29690048
57	0xbf077f84	-0.5292895
58	0x3eb078c8	0.3446715
59	0x3f485f94	0.7827084
60	0x3e3889e1	0.18021347
61	0xbed55dc7	-0.4167311
62	0xbfaf39ee	-1.3689554
63	0x3e92dd23	0.2868434
64	0x3eaca53b	0.3371981
65	0x3f5444a4	0.8291724
66	0x3ef91cd4	0.48654807
67	0xbf54f832	-0.83191216
68	0xbfb1b50e	-1.3883379
69	0xbf69dd6c	-0.9135349
70	0x3d0c32e0	0.034228206
71	0x3e29f7a5	0.16598375
72	0x3f6dde7e	0.9291762
73	0xbf864331	-1.0489255
74	0xbf5ad065	-0.85474235
75	0x3f00e23a	0.50345194
76	0xbfd8a557	-1.6925458
77	0xbf45b5ff	-0.7723083
78	0x3eaaf7af	0.33392093
79	0x3e45ba1e	0.1930928
