ros2_hgr/model/keypoint_classifier/keypoint_classifier.tflite (tflite, 6748 bytes, 6 tensors)

sequential_2/dense_8/BiasAdd/ReadVariableOp f4 [8]
00000000: 19b6 2abf bd4c 06bf 43c0 313f ec2a 78be
00000010: e775 293f eccb 2d3e 1720 213f 531e 48be
-0.6668411 -0.52460843 0.69433993 -0.24235123 0.6619553 0.16972321 0.6293959 -0.19542818

sequential_2/dense_7/BiasAdd/ReadVariableOp f4 [10]
00000000: 1e5e e13e 2c16 3e3f 7262 693e 3372 963e
00000010: c7db edbc c7bc eebd cd73 723f 6f75 883d
00000020: b848 f5bd 59f0 81be
0.44017118 0.7425258 0.2279146 0.29384002 -0.029035462 -0.116571 0.9470795 0.06663024
-0.119767606 -0.25378683

sequential_2/dense_6/BiasAdd/ReadVariableOp f4 [20]
00000000: 4f48 27bf 47d3 35bd e6d3 f4be a8c7 2ebf
00000010: dcf7 df3d cfc1 27bf 6744 883a 685c 13bf
00000020: 88a0 ecbe 6b7a 0dbf be4c 10bf 01ef a9bd
00000030: 8a23 09bf efbf 30bf 0802 34bf d5c4 21bf
00000040: 1466 8cbf 93ca 10bf ee98 07bf b36d f0be
-0.6534471 -0.044390943 -0.47817916 -0.682734 0.10935947 -0.65530103 0.0010396362 -0.57562876
-0.46216226 -0.5526492 -0.563671 -0.082975395 -0.53569853 -0.6904287 -0.703156 -0.63190967
-1.0968652 -0.56559104 -0.5296773 -0.46958694

sequential_2/dense_6/MatMul f4 [20, 42]
00000000: 7a15 163e c2e3 93be 50db 5fbd 2004 18be
00000010: 28c3 8abd bc54 1b3a 8f24 6dbd ad58 96bb
00000020: ba96 98bd f1bd 1dbc 8bae 8e3c e9c7 953b
00000030: f39d 9abc 091f 5dbc 1ad5 1a3d 50c9 213d
00000040: e006 9a3d 0c88 e93d b236 e33d 6a00 2a3d
00000050: 197d 32bc 793d f63d fb1f 9ebb 57b9 5d3e
00000060: 1bae 9f3c a0c0 4e3e 4025 9f3d 9f60 f33d
00000070: f643 11bb 1d85 a03d b116 94bd 2637 63bd
00000080: 4d6d 10be c6c1 b2bd 52aa c83d d1ba 583e
00000090: 49de 23bd b7c7 05bd 6056 fdbd c67e e2be
000000a0: 5c43 73be 4ca9 1bc0 a09d f3bc 7ad5 9e3e
000000b0: e99e c1be 0237 7bbf 63ad 12bf 2b7a 33bf
000000c0: 2398 87be 3ac4 3bbf 2b83 9fbd 7fac 36bf
000000d0: b12b 15bf 932d cdbe 9fc0 50be 6f0b 62be
000000e0: 7644 d23d a205 793a c9c6 473e 5f07 01be
000000f0: c597 60be 1f07 19be 2190 41be e47d 243d
00000100: 3227 153e b130 523e 0c63 1d3e 8057 9f3d
00000110: c89b 09be 014c 213e b79d 8a3d edc3 993d
00000120: 415f 5d3e a56e 813e 4475 6c3e 6dc3 243e
00000130: bcda 553e 396b ea3e 93f0 ac3d 2dae dd3e
00000140: e033 c1bd 2cdc 013f 7bfc 3dbe c8b5 f03e
00000150: b27f 183e b0f7 cbbc 36a3 9b3d 9732 1c3e
00000160: 9713 34be 83ed d83d cccc c6be dddf 083e
00000170: 8c22 11bf bda3 123e a6ad 213e b49f 553e
00000180: ac46 fb3c e301 b73d 4dc5 b13c 11a8 993d
00000190: f9eb a6bb 301f 103c 0a4f 683d 8a50 723e
000001a0: 6085 29bd 6002 343d 16d3 993c 1a92 3fbe
000001b0: 7ab4 0d3e d204 6dbd d078 a7bd de41 6f3e
000001c0: c895 73bc 02cf 8dbb 41ef bb3e a2ee eebe
000001d0: 380f 423f 91b1 5fbf eedf 3fbe 73df 9b3e
000001e0: 5f14 a3bd 60bf e53d 9ef0 823e c5d7 21bd
000001f0: 3174 293f 53ec 06be 8645 313e 2144 8abe
00000200: ba54 8f3e 1ada 0340 c758 4b3d 1033 7b3f
00000210: 6b30 f03d d9e0 1b3f 7b1d a63d 1515 eb3e
00000220: 6755 06bd 1ee2 eb3e 1fe8 693c 70af 3a3e
00000230: 3f87 c33c 1db1 28be 49d5 f13c 12c7 0dbf
00000240: 5dff bbbd bff4 8c3e ebfd a93b 09b7 563d
00000250: bd89 8f3c b7f2 14bd 1561 4abb e244 8fbe
00000260: 3034 b8bc 4cf2 4e3d 9bbc e9bc d3ea 79bd
00000270: bd12 52bc 6c61 d5bd 15b2 95bd e342 4fbe
00000280: a29c 40bd 8a11 85be 988a 5ebd f1f7 2bbe
00000290: a7b2 53bd d79f 01be 4483 60bd 104f acbd
000002a0: 8425 993e 0274 7ebe f43d 62bf bd9c 023f
000002b0: db17 bbbe 7d09 8b3e 5757 7bbd 1481 773e
000002c0: bf8c a73e 248c 493e 14a1 95be dd28 d8bc
000002d0: bd72 afbd 993d 7ebe b50a 8a3d 2649 aabe
000002e0: fdca 8c3e e750 92be 3bcd 0bbe 4f3b 46be
000002f0: bfbf 0cbd 05a1 193d fb11 97bd 6372 e43e
00000300: 782d c9bd f4a4 923e 15ed 1d3d 0662 a3be
00000310: d508 363d 2e60 0f3d 59da 643d 9df4 0e3f
00000320: 2cb7 7c3a b30b 413f 94c9 133e f42b 25bf
00000330: 59a3 963d 19d1 4dbc a2cd c83d 22c8 fc3e
00000340: 7665 963c 7426 293f c387 26be 7e30 2e3e
00000350: acb8 473f 8176 13bf 1609 1b3f cee0 e1be
00000360: 93c2 073f 0172 32bf a001 0f3f 37bf 39bf
00000370: 2bb1 863e 82b6 32be 8a42 4abd e957 783d
00000380: 2e2c 89be a3b6 353e d26a 9bbe 388c 2e3e
00000390: ecf2 2d3e 2dc7 3cbe e98b fd3d a5ee 943c
000003a0: 1382 a2bd d952 5e3e 9271 05be 7674 fa3d
000003b0: 2000 bf3d 0b0c a0be 250e 143e fc35 e3bd
000003c0: 9f0e 30be 5d3b 923e 5ae4 cabe 8b96 a43e
000003d0: d40a be3d 84d3 57be 5ee2 393e 878f d93c
000003e0: d159 083d 761b aa3e bcb7 4fbe 6741 cd3e
000003f0: a0f4 503d 1c81 9c3e 57b5 b7be 9161 a13e
0.1465663 -0.28884703 -0.054652512 -0.14845324 -0.06775504 0.0005925407 -0.057896193 -0.0045882077
-0.07450624 -0.009627805 0.017417213 0.0045709503 -0.018874144 -0.013496169 0.037800886 0.039498627
0.075208426 0.11402902 0.11094417 0.0415043 -0.010894083 0.12023444 -0.0048255897 0.21652733
0.0194922 0.20190668 0.07770777 0.118836634 -0.0022165752 0.07837889 -0.072308905 -0.055472516
-0.14104195 -0.087283656 0.09798111 0.21165015 -0.04000691 -0.032661166 -0.1236999 -0.44237345
-0.23756164 -2.432208 -0.029738247 0.31022245 -0.3781655 -0.9813081 -0.5729582 -0.7010829
-0.2648326 -0.7334629 -0.0778869 -0.7135696 -0.5826979 -0.40073833 -0.20385979 -0.22074674
0.10266964 0.00094994355 0.19509424 -0.12600468 -0.21932895 -0.14944123 -0.18902637 0.04015912
0.14565733 0.20526387 0.15369815 0.07780361 -0.13438332 0.1575165 0.06768363 0.07508073
0.21618368 0.25279728 0.23091608 0.16090174 0.20884222 0.4578493 0.084443234 0.43296948
-0.094337225 0.5072658 -0.18553345 0.47013688 0.14892462 -0.02489838 0.075994894 0.15253673
-0.17585598 0.10592177 -0.38828123 0.13366647 -0.5669334 0.14320274 0.15788898 0.20861703
0.030673347 0.08935907 0.021700526 0.07502759 -0.005094048 0.008796498 0.056716003 0.23663536
-0.041386962 0.043947577 0.018777411 -0.18708077 0.13838378 -0.057865925 -0.0817734 0.2336497
-0.014867254 -0.004327656 0.36705974 -0.46666437 0.7580447 -0.8738032 -0.18737766 0.30443916
-0.0796287 0.112181425 0.255742 -0.039512414 0.6619292 -0.13176088 0.17311677 -0.27005103
0.2799433 2.0601869 0.04964521 0.9812479 0.11727985 0.60889965 0.08111092 0.45914522
-0.03279629 0.4607095 0.014276533 0.18230987 0.023868201 -0.16473813 0.029520648 -0.5538188
-0.09179566 0.27530476 0.00518774 0.05242065 0.017521733 -0.036364283 -0.003088062 -0.2798224
-0.022485822 0.05052404 -0.028532317 -0.06101496 -0.01282185 -0.104189724 -0.07309357 -0.20240359
-0.047024377 -0.25989944 -0.054331392 -0.16793801 -0.051684048 -0.1265863 -0.054812685 -0.084135175
0.29911435 -0.24848941 -0.8837578 0.51020414 -0.36541638 0.27155676 -0.06136259 0.24170333
0.32724568 0.19682366 -0.29224455 -0.026386673 -0.085668065 -0.24828185 0.067403235 -0.33258933
0.27498618 -0.2857735 -0.13652508 -0.19358562 -0.03436255 0.037507076 -0.073764764 0.4461852
-0.098231256 0.28641474 0.038556177 -0.31910723 0.044442017 0.035003833 0.055872295 0.55842
0.0009640332 0.75408477 0.14432365 -0.6452019 0.07355375 -0.01256206 0.09804846 0.4937144
0.018358927 0.660743 -0.16262726 0.17010686 0.7801616 -0.576027 0.6056074 -0.44116825
0.5303127 -0.69705206 0.55861855 -0.72557396 0.26307043 -0.17452434 -0.049379863 0.060630713
-0.2679152 0.17745452 -0.30354935 0.17045677 0.16987199 -0.18435355 0.12380201 0.0181802
-0.07934966 0.21711291 -0.13031605 0.122292444 0.09326196 -0.31259188 0.1445852 -0.11094281
-0.17193078 0.28560916 -0.39627343 0.32146105 0.09279409 -0.2107678 0.18152758 0.026557697
0.03328878 0.33224076 -0.20284933 0.4008896 0.051014543 0.30567253 -0.3588054 0.3151975

sequential_2/dense_7/MatMul f4 [10, 20]
00000000: b413 293e 2d7c 063f 02e3 3cbe 74ab 823f
00000010: 824b 3c3f c8af cd3e 6955 fcbd 6ed6 5d3d
00000020: d900 02be cb59 343e d853 023e 297b ba3f
00000030: e362 7dbe 25bb adbe 3964 da3d 879f 513f
00000040: d779 44be 4645 0fbe 0e63 9a3e 44f5 893e
00000050: 772b 493e 97f5 573f 70c6 a1be f74d 67be
00000060: 8bc0 153d 62a4 aa3f af74 1e3d 049a 0abf
00000070: 5d0b 3cbf b9ed a0bd 882b 3e3c 2de6 d4be
00000080: 6a44 3e3f 4cec 1d3f 63db 3e3c 5221 003f
00000090: a6ef 0b3f 191f b0be 2a91 b2bf 960c 973f
000000a0: 6f92 523f 361f b43c aa0b fabd 1edb a7bc
000000b0: 94ff 873e 26a3 4abe a9df 0a3f f239 58bf
000000c0: 8688 d9be bbcd 633f 634b 8b3f 1266 bc3e
000000d0: 6820 f83e f724 3f3f 969f af3d 733e 77be
000000e0: b23a d6be 564b c7ba 8cc3 47be b02a 483d
000000f0: a87a 0f3f 9461 353e a6a3 2cbf ec41 e7bd
00000100: e74f 97be 3137 953e 1ffb 02bf 98d0 a23f
00000110: 4af5 9dbe af2c 6a3f a208 023f 0356 bfbd
00000120: b3ea 8a3e 2513 873e 60b0 533f b71b 23bf
00000130: 1628 bf3e 8bee cdbd 5a74 443f 9eb4 843e
00000140: 9aa5 d1bc 261b 6b3c a8c3 ba3e d192 1cbd
00000150: b4c5 73be f7df 5dbd 58c1 2e3f ad4e 233f
00000160: f983 1bbf 1ace d03d b21c f2bb 802d 3ebd
00000170: ff41 79bc 94e9 03bd d8fd 3bbe 0df7 91bd
00000180: 7ca9 01be 84ee 6ebe a89f ac3f b02b 213d
00000190: 10c2 d03e d348 473e b5a7 ef3e 7037 d53b
000001a0: dac6 9dbf 66d5 7f3d e53c 96bf 9f77 6c3f
000001b0: df50 d53f cd59 eb3e e93a e93e f7f0 5f3d
000001c0: f15d a03e 3b7a a73d c090 0f3f 0039 6e3e
000001d0: 6871 943e 5063 4b3f 50e4 773f 48b0 14bf
000001e0: a74f d33c 613f 923d 4d05 953d 2b53 fc3e
000001f0: c648 243f b582 08be f0d1 053f 77c8 4c3b
00000200: d8c4 6c3d 35a8 0abe 1c5d a0bc 726d 843f
00000210: c998 ffbe 177e d6be 5867 bdbd 9883 b2bd
00000220: ffff b5be b3fd 4c3e a894 99be 4554 a1bc
00000230: 01f3 0b3f 733a 483c 7e63 723f 633e e43f
00000240: 6732 c43e 8bac f33e a32b bc3e 4d61 1e3e
00000250: 0e1c 973f a649 613e 5bde ac3d 07a8 9b3d
00000260: 1c0c 67be 87be 31bd c195 e03d 4daa ad3f
00000270: 0669 973f e6d4 ae3f 4b7a dfbd 33ed 873e
00000280: 0698 46bf f775 e83e 84c6 533f 7e3d b8be
00000290: 5343 803e 8b7b 753f ca0c 113e d441 863d
000002a0: 3390 393f 75a0 93be 1577 d4be ae32 dcbd
000002b0: ec0c 49be 5181 babe 4c43 0fbd becc 3d3e
000002c0: 409b ccbe 08b8 1abf 71f5 943b 3124 8f3f
000002d0: d9d3 a23f de55 743d be34 b6bd 39eb 70bd
000002e0: 6e7b ca3e 63db f23d 59eb 84bf 5ab4 073e
000002f0: 9ac4 03bf 377a acbd 71eb acbe f278 0e3f
00000300: d1b4 1dbd f3eb 06be 13bc 03bc 5dc6 c63d
00000310: 1aee aebe 2592 2bbe 31ff b9be b963 143e
0.16511422 0.5253323 -0.18445972 1.0208573 0.73552716 0.40173173 -0.12320978 0.054159574
-0.12695636 0.17612378 0.12727296 1.4568835 -0.24744754 -0.33931842 0.10663647 0.81884044
-0.19187103 -0.1399127 0.30153698 0.26944935 0.19645487 0.84359115 -0.31596708 -0.22588335
0.036560576 1.3331416 0.038685497 -0.5414126 -0.7345484 -0.07857842 0.011607058 -0.4158186
0.7432314 0.61688685 0.011648986 0.5005084 0.5466255 -0.34398726 -1.395055 1.1800716
0.8225469 0.021987539 -0.12209256 -0.020490225 0.26562178 -0.19788799 0.5424753 -0.8446342
-0.42486972 0.88985795 1.0882381 0.36796623 0.48462224 0.7466578 0.085753605 -0.24144916
-0.41841656 -0.0015204947 -0.19508189 0.048868835 0.56046534 0.17713004 -0.6743721 -0.112918705
-0.29553148 0.2914367 -0.5116443 1.2719908 -0.30851203 0.9147443 0.5079442 -0.09342577
0.27132186 0.26381794 0.82691 -0.63714164 0.3733527 -0.10055264 0.7674004 0.2591905
-0.02559166 0.014349734 0.364774 -0.038225953 -0.23805887 -0.054168668 0.6826377 0.63791925
-0.6074825 0.10195561 -0.0073886747 -0.04643011 -0.015213489 -0.03220518 -0.18358552 -0.07127199
-0.1266231 -0.23333174 1.3486223 0.039348304 0.40773058 0.19461374 0.46807638 0.006506853
-1.232631 0.062459372 -1.1737334 0.9237003 1.6665305 0.4596695 0.45552757 0.05467316
0.31321672 0.081776105 0.56080246 0.23263931 0.28992772 0.79448414 0.9683275 -0.58081484
0.025794817 0.07140995 0.07276402 0.49282202 0.64173543 -0.13331111 0.52273464 0.0031247416
0.057804912 -0.13540728 -0.019575648 1.03459 -0.49921253 -0.41893074 -0.09248227 -0.08716506
-0.35546872 0.20018654 -0.29996228 -0.019693503 0.5466767 0.012220967 0.94683063 1.7831539
0.38319704 0.47592577 0.36752042 0.15466805 1.1805437 0.22000751 0.084408484 0.07600408
-0.22563213 -0.04339459 0.10966063 1.3567597 1.1828926 1.3658721 -0.109119974 0.26548156
-0.7757572 0.454025 0.82724786 -0.35984415 0.25051364 0.95891637 0.14165035 0.065555245
0.72485656 -0.28833356 -0.41497102 -0.10751854 -0.19633836 -0.36426786 -0.03497629 0.18535134
-0.39962196 -0.6043706 0.0045458605 1.118292 1.2720901 0.0596522 -0.088967785 -0.058818076
0.39547294 0.11858251 -1.0384322 0.13252392 -0.51471865 -0.08421748 -0.33773378 0.556533
-0.038502518 -0.13175945 -0.008040446 0.097058035 -0.34166032 -0.16754968 -0.36327508 0.14491166

sequential_2/dense_8/MatMul f4 [8, 10]
00000000: 71e6 cf3e 7a60 2abe 88b5 223d e878 483e
00000010: e265 253f 98e3 293f ce27 8fbe d8fd 983e
00000020: d7e4 633f 5510 dd3d 611b 803d de19 6b3f
00000030: c332 3b3e 123e 2b3f 3753 68bf 82f4 37bf
00000040: fe9d d6be ca5d 693f d1c2 23bf cdbc 83bf
00000050: 07a7 ba3e 17f8 4f3f 4c6c 113f dd9d ddbe
00000060: f130 39bf 7495 7fbf 8bec a03e 7238 05bf
00000070: adb2 92bf 3b8e 4fbf a85b 9dbf cef9 cebe
00000080: c778 373e ead8 d73e 131b e43e 5714 3e3f
00000090: c8e7 6ebf 2ba0 4a3e 4f53 7c3f eda9 023f
000000a0: 2cc4 0d3f fb1e 27be 6396 16bf 1f15 743f
000000b0: 4e19 303f 806e 69be b1fb 463e 3534 96bf
000000c0: 729d 85bf ad6d 93bf 9e08 e6be 6b8c 8c3f
000000d0: 53e7 6abf 6ddb 6ebe b61e 64bf de3e 1cbd
000000e0: 4d7b 46bf 4121 8bbf d9a5 093f bd29 9dbf
000000f0: 253b 98be 513e a6bf 5763 81bf 5ef7 f8bf
00000100: 41a0 0bbf d664 1bbf e6c9 683f 4d95 313f
00000110: 59b0 48bf d381 82bf f14e 7e3e 6b70 1dbf
00000120: c18d 6b3f 31a3 5f3e 503b e5bf 593e debe
00000130: 16ac b3be c81d 7cbf bff5 93bf eb6a 843f
0.406055 -0.16638365 0.039723903 0.19577372 0.64608586 0.66362906 -0.27960056 0.29881167
0.89021057 0.10794131 0.06255222 0.91836345 0.18281083 0.66891587 -0.90751976 -0.71857464
-0.41917413 0.91158736 -0.6396914 -1.0291992 0.36455557 0.8123793 0.5680587 -0.43284503
-0.72340304 -0.9983742 0.31430468 -0.52039254 -1.1460778 -0.810764 -1.2293596 -0.4042496
0.17917167 0.4215768 0.44551906 0.74249786 -0.9332242 0.19787662 0.9856462 0.51040536
0.5537746 -0.16320412 -0.5882322 0.9534473 0.6878861 -0.22796059 0.1943195 -1.1734682
-1.0438673 -1.1517845 -0.4492845 1.0980352 -0.9175922 -0.23325892 -0.8910936 -0.038145892
-0.7753189 -1.0869523 0.5376869 -1.2278363 -0.29732624 -1.2987767 -1.0108441 -1.945049
-0.54541403 -0.6070074 0.9093307 0.6936844 -0.78394085 -1.0195869 0.24834801 -0.6149966
0.92013174 0.21839596 -1.7908726 -0.43406942 -0.3509223 -0.9848294 -1.1559371 1.0345129
